covid_model.tflite (tflite, 731676 bytes, 12 tensors)

dense_4/bias f4 [2]
0.005480589 -0.0054805847
00000000: 8396 b33b 7a96 b3bb

dense_3/bias f4 [120]
-0.108345434 0.07009541 -0.10402904 0.112211116 0.0112899495 0.049172215 0.054262955 0.09609819
-0.09828871 0.07410282 -0.08605766 -0.0044386536 0.061938077 -0.12153825 0.027653482 0.03144656
-0.09484108 -0.013384142 -0.11313517 -0.006363584 -0.109759174 -0.077139296 0.06229067 -0.102627695
-0.028933484 -0.12335641 0.032980975 -0.047202457 -0.07206257 -0.100514725 0.027880177 0.12585048
-0.041264296 -0.10015367 0.025148738 -0.10329677 -0.052250143 -0.104054525 -0.118831985 0.026811931
0.14558508 -0.10521124 0.016332438 0.038155764 -0.040958628 0.00058459846 0.050476313 -0.01048824
-0.109421514 -0.08222061 0.0029549568 0.06007984 0.064381294 -0.08711185 -0.11650532 -0.12235256
0.023790881 0.16044039 -0.11625845 -0.095513254 0.038964476 0.053642888 -0.12403618 0.0024421397
-0.11232047 -0.051581472 0.20510288 0.05940369 0.0038058173 0.1975082 0.027820397 -0.091540895
0.16537602 -0.115274414 0.16816859 -0.10433167 -0.094352 -0.10171086 -0.08200232 -0.10030953
0.033422623 0.049440905 -0.023723643 0.025065398 -0.06674037 -0.09671497 0.07494334 0.048865277
0.00029966637 -0.07411495 0.016141025 0.017704625 0.083238386 -0.09955349 0.01397298 0.031896684
-0.08645268 -0.11035244 -0.07885264 -0.08590321 -0.02401837 0.054941382 0.0321086 0.03017338
-0.10786189 -0.0491294 0.10234133 -0.049637083 0.06043783 -0.119582094 -0.103676975 0.03203917
0.022922946 -0.11435483 -0.10359781 -0.0990399 -0.001230632 0.050190076 -0.12936895 -0.10239246
00000000: 36e4 ddbd 2f8e 8f3d 2d0d d5bd f1ce e53d
00000010: 7bf9 383c ce68 493d d542 5e3d 21cf c43d
00000020: 974b c9bd 38c3 973d 003f b0bd 2072 91bb
00000030: c8b2 7d3d 0ce9 f8bd 8e89 e23c 1cce 003d
00000040: 0a3c c2bd 2949 5bbc 69b3 e7bd 9d85 d0bb
00000050: 6bc9 e0bd 35fb 9dbd 8024 7f3d 782e d2bd
00000060: ea05 edbc 49a2 fcbd 0f17 073d 5d57 41bd
00000070: 8a95 93bd aada cdbd f864 e43c f3de 003e
00000080: c004 29bd 5e1d cdbd ba04 ce3c 428d d3bd
00000090: 3f04 56bd 8a1a d5bd 2f5e f3bd b2a4 db3c
000000a0: 4114 153e fe78 d7bd 9bcb 853c 3849 1c3d
000000b0: 3cc4 27bd bd3f 193a 40c0 4e3d ded6 2bbc
000000c0: 6318 e0bd 4763 a8bd f3a7 413b 4716 763d
000000d0: 57da 833d b367 b2bd 579a eebd fb93 fabd
000000e0: 18e5 c23c 7c4a 243e e918 eebd 749c c3bd
000000f0: 3799 1f3d a5b8 5b3d ae06 febd 4e0c 203b
00000100: 4608 e6bd 1847 53bd 7d06 523e 4951 733d
00000110: 056b 793b 973f 4a3e 9ae7 e33c cb79 bbbd
00000120: 5558 293e fe14 ecbd 6334 2c3e d8ab d5bd
00000130: 9f3b c1bd c94d d0bd d5f0 a7bd 156f cdbd
00000140: 29e6 083d 8c82 4a3d 1658 c2bc f355 cd3c
00000150: 2daf 88bd 8012 c6bd e57b 993d f526 483d
00000160: 8a1c 9d39 94c9 97bd 2f3a 843c 4a09 913c
00000170: e378 aa3d b3e2 cbbd edee 643c 19a6 023d
00000180: 1a0e b1bd 7600 e2bd 7e7d a1bd 06ee afbd
00000190: 2cc2 c4bc 370a 613d 4f84 033d 2a2e f73c
000001a0: b2e6 dcbd e93b 49bd 5598 d13d 4150 4bbd
000001b0: a88d 773d 75e7 f4bd 9854 d4bd 813b 033d
000001c0: e7c8 bb3c dd32 eabd 172b d4bd 6ed5 cabd
000001d0: 284d a1ba 1c94 4d3d 4b79 04be 23b3 d1bd

dense_2/bias f4 [128]
-0.041440055 0.15300548 -0.030155601 0.17008317 0.0614459 0.09861103 -0.04551831 -0.02156188
0.070007 -0.019637987 0.116880305 -0.047618084 -0.049657334 -0.030286161 0.19307937 0.10698795
-0.03134849 -0.04813326 -0.034100063 0.14356083 0.1973543 -0.045540202 -0.0234182 -0.044368252
-0.024983322 -0.029852064 -0.043280154 0.01999317 -0.02231223 -0.022991948 -0.02427396 -0.027164942
-0.061846677 -0.043883584 0.011823819 0.01843115 -0.043289248 -0.012352529 -0.036171813 -0.045813605
-0.026762277 -0.029207591 -0.055434614 0.11999546 -0.020095551 -0.042749867 0.2042364 -0.073750466
-0.03379036 -0.0025980186 -0.014148705 -0.039553974 0.12601997 0.079501696 -0.02998663 0.16006175
-0.0591755 -0.05596378 -0.010508861 0.16221523 -0.04555582 -0.027532937 -0.039566822 0.006659984
-0.021814784 0.010484064 0.1496812 0.1684734 -0.041885 -0.055155233 -0.029915992 -0.023943713
-0.0021033261 0.048650093 -0.054516796 -0.04853107 -0.029687215 -0.023184799 -0.039576635 -0.032166287
-0.049226217 -0.03866236 0.13711268 -0.054258455 -0.034451805 -0.040524017 -0.046927486 0.12038037
-0.026086204 -0.046198573 0.03560212 -0.009778177 -0.034430712 -0.038444057 -0.07702984 -0.050303724
-0.036810264 0.026057823 -0.02035437 -0.054896194 -0.008603078 -0.008615986 -0.042792547 0.13613535
-0.026647551 -0.03564487 -0.031329565 0.14177412 0.09769901 0.016216097 -0.025965123 -0.046277493
-0.02207148 -0.027798017 -0.060768798 -0.03096284 -0.020182861 0.021251827 0.15501338 0.030265959
-0.01891267 -0.04400805 -0.03184101 0.02132418 0.12607181 -0.0110920295 -0.017837366 -0.06277883
00000000: 0cbd 29bd 78ad 1c3e e108 f7bc 482a 2e3e
00000010: b2ae 7b3d 94f4 c93d 6871 3abd 8aa2 b0bc
00000020: d45f 8f3d d8df a0bc f15e ef3d 2e0b 43bd
00000030: 7d65 4bbd af1a f8bc 99b6 453e 801c db3d
00000040: 4667 00bd 6227 45bd 82ac 0bbd 9c01 133e
00000050: 3f17 4a3e 5d88 3abd 86d7 bfbc 7cbb 35bd
00000060: d3a9 ccbc 518c f4bc 8846 31bd b7c8 a33c
00000070: 23c8 b6bc 9c59 bcbc 2fda c6bc 0389 debc
00000080: f152 7dbd 46bf 33bd b1b8 413c ecfc 963c
00000090: 1150 31bd 4362 4abc e528 14bd 0ca7 3bbd
000000a0: 903c dbbc c244 efbc 680f 63bd 2ec0 f53d
000000b0: 6d9f a4bc 7c1a 2fbd 5923 513e 7c0a 97bd
000000c0: c367 0abd 8543 2abb f8cf 67bc 5903 22bd
000000d0: 610b 013e c9d1 a23d 85a6 f5bc 3ae7 233e
000000e0: 0262 72bd 473a 65bd 5c2d 2cbc c01b 263e
000000f0: bd98 3abd c18c e1bc d210 22bd ff3b da3b
00000100: ebb4 b2bc 5ac5 2b3c 0746 193e 4a84 2c3e
00000110: 9b8f 2bbd 74ea 61bd 6212 f5bc 9b25 c4bc
00000120: f5d7 09bb 5245 473d 014d 5fbd 84c8 46bd
00000130: 9a32 f3bc 0cee bdbc 1c1b 22bd ccc0 03bd
00000140: 6ea1 49bd 6c5c 1ebd 4467 0c3e 1d3e 5ebd
00000150: 561d 0dbd 83fc 25bd 0937 40bd fc89 f63d
00000160: bcb2 d5bc b73a 3dbd 87d3 113d a634 20bc
00000170: 3807 0dbd 8477 1dbd d2c1 9dbd 470b 4ebd
00000180: 5cc6 16bd 3777 d53c 35be a6bc d5da 60bd
00000190: edf3 0cbc 112a 0dbc 3d47 2fbd 1167 0b3e
000001a0: f74b dabc 5b00 12bd 6e53 00bd 3c2d 113e
000001b0: 6b16 c83d 9fd7 843c cfb4 d4bc 788d 3dbd
000001c0: 40cf b4bc abb8 e3bc b4e8 78bd c8a5 fdbc
000001d0: 8756 a5bc 5018 ae3c d4bb 1e3e 51f0 f73c
000001e0: beee 9abc c941 34bd b86b 02bd 0cb0 ae3c
000001f0: f818 013e 58bb 35bc ab1f 92bc 3092 80bd

dense_1/bias f4 [256]
-0.04532844 -0.016428271 -0.010892579 -0.005252653 -0.01705283 -0.008588615 -0.0117542045 -0.033170186
-0.013026753 -0.005985456 -0.017640421 -0.005942523 -0.017591022 -0.007861021 0.00017941812 -0.021629645
0.031582836 -0.024192866 -0.007736114 -0.01704105 -0.055274833 -0.01581981 -0.024438038 -0.0013907792
0.15273109 0.0028473798 -0.0039502108 0.07080984 -0.017516106 -5.137921e-09 -0.044070277 -0.015535471
-0.0114921825 -0.0017871629 -0.029380053 -0.023061026 -0.01446721 -0.02147977 0.0 0.103899494
-0.0027013575 -0.010117493 -0.013446485 0.0 -0.031421848 0.010593959 -0.011750546 -0.010213342
-0.002748606 -0.0059683225 -0.038852625 -0.013707159 -0.049494117 -0.005137475 -0.059399653 -0.020287508
0.09117155 -0.023300404 0.10783098 0.16080497 -0.011543247 0.0034497194 -0.046599817 -0.03890301
0.0015402874 -0.03577044 -0.0070680873 0.00287488 -0.032440197 -0.031506516 -0.007424878 -0.010913179
-0.011652275 -0.0059305285 -0.009719194 -0.008354993 -0.041071 -0.0070919283 -0.0070180297 -0.012560753
-0.03475149 -0.014640841 -0.009746876 -0.01965023 0.06337323 -0.023241004 0.06355516 -0.039871432
0.0440587 -0.005380229 -0.0040169605 -0.019520357 0.0 0.0005447458 -0.012492197 -0.008622757
-0.015626114 -0.020431707 -0.0063996385 -0.023988307 -0.05767063 -0.02668367 -0.006579336 -0.03929489
-0.024719352 -0.051159475 0.09249 -0.00471747 -0.017886724 -0.043999612 -0.016393643 -0.007421675
-0.019079369 -0.028283553 -0.009153251 -0.015217302 -0.0017266818 -0.010528193 -0.011067419 -0.017031582
-0.0010435905 -0.011929442 -0.011965006 -0.045422673 -0.018537272 -0.012356891 -0.009598459 0.10474676
0.044991426 -0.042379994 -0.029656215 0.06573727 -0.0062978542 -0.02591611 -0.0065730317 -0.014606636
-0.0025634367 0.027972499 -0.012386197 0.010766556 0.08111121 -0.01361924 0.14104581 -0.01922624
0.092693865 -0.017171673 0.0914967 0.008971608 -0.013294986 0.0815414 -0.036010362 -0.015798135
0.09222963 -0.0067263516 -0.012296133 -0.027563753 -0.00937744 -0.010882768 -0.018269848 -0.02094997
-0.04726275 -0.018860593 -0.04258756 -0.014597326 -0.020705301 -0.018970974 -0.021174759 -0.0015978054
-0.005644736 -0.013418193 0.007381327 -0.022184242 -0.013760234 -0.009195788 -0.023806535 -0.02821901
0.030555805 -0.0052297497 -0.021788556 -0.009585419 -0.03457496 0.1591541 -0.00834139 -0.009568666
-0.045171544 -0.0067219143 0.041524906 -0.025778368 -0.02279243 -0.017569315 -0.02780921 0.11511416
-0.0010798959 -0.0067821913 -0.01103893 0.007952479 0.0 -0.006911383 0.0006624401 -0.031221807
-0.013391206 -0.020684104 -0.0088826995 -0.04185697 -0.016709648 -0.041452866 0.07537793 -0.01437439
0.107684925 0.13574691 -0.012587115 -0.018401124 -0.018846218 -0.0053479993 -0.042965245 -0.017366096
-0.030383946 -0.013194756 0.0838614 -0.017473632 -0.011464215 -0.015902298 -0.027482353 -0.023681771
-0.011031373 -0.0026398543 -0.029230598 -0.0047012344 -0.010907261 -0.021785181 -0.008227207 -0.019645268
-0.005929301 -0.05023534 0.0 -0.009231056 -0.009048606 -0.014258865 -0.042063907 -0.019475793
-0.032272305 -0.008020726 -0.04982144 0.0031712432 0.0045359195 0.005010339 -0.045568965 -0.0054022474
-0.005875039 -0.008356458 0.0 -0.011801487 -0.0032142394 -0.040420707 -0.035453603 0.03293347
00000000: 50aa 39bd 9594 86bc ca76 32bc 721e acbb
00000010: 60b2 8bbc 43b7 0cbc b594 40bc 76dd 07bd
00000020: 2a6e 55bc a521 c4bb a582 90bc 7fb9 c2bb
00000030: 0c1b 90bc 83cb 00bc 2f22 3c39 a730 b1bc
00000040: 015d 013d 1e30 c6bc 3a7f fdbb ac99 8bbc
00000050: dd67 62bd 8c98 81bc 4832 c8bc ce4a b6ba
00000060: 8a65 1c3e 1b9b 3a3b c570 81bb c004 913d
00000070: f07d 8fbc a289 b0b1 0983 34bd 7d88 7ebc
00000080: b549 3cbc 3c3f eaba 70ae f0bc 7aea bcbc
00000090: e007 6dbc 58f6 afbc 0000 0000 42c9 d43d
000000a0: 4209 31bb d7c3 25bc a54e 5cbc 0000 0000
000000b0: 32b4 00bd 4992 2d3c 5d85 40bc dc55 27bc
000000c0: f521 34bb eb91 c3bb ee23 1fbd fe93 60bc
000000d0: 58ba 4abd 4458 a8bb 0d4d 73bd fd31 a6bc
000000e0: 26b8 ba3d 7de0 bebc 7dd6 dc3d 0faa 243e
000000f0: e31f 3dbc b014 623b 73df 3ebd c358 1fbd
00000100: 78e3 c93a 0684 12bd 6a9b e7bb 7c68 3c3b
00000110: 03e0 04bd fa0c 01bd 644c f3bb 31cd 32bc
00000120: 2fe9 3ebc e154 c2bb 413d 1fbc 61e3 08bc
00000130: 113a 28bd 6863 e8bb 80f7 e5bb 9ecb 4dbc
00000140: 9457 0ebd 23e0 6fbc 5cb1 1fbc 85f9 a0bc
00000150: d3c9 813d eb63 bebc 3529 823d 3a50 23bd
00000160: e576 343d a24c b0bb b5a0 83bb 28e9 9fbc
00000170: 0000 0000 46cd 0e3a 12ac 4cbc 7746 0dbc
00000180: 5602 80bc 6560 a7bc 0fb4 d1bb 2083 c4bc
00000190: 0a38 6cbd b697 dabc 7897 d7bb aef3 20bd
000001a0: 3d80 cabc 998c 51bd 666b bd3d 0295 9abb
000001b0: 2e87 92bc f038 34bd f64b 86bc 8631 f3bb
000001c0: 564c 9cbc e9b2 e7bc 84f7 15bc fe51 79bc
000001d0: d451 e2ba 717e 2cbc 1f54 35bc d185 8bbc
000001e0: 16c9 88ba b573 43bc df08 44bc 200d 3abd
000001f0: 7adb 97bc 8f74 4abc db42 1dbc 7885 d63d
00000200: ee48 383d a596 2dbd 97f1 f2bc 43a1 863d
00000210: 3b5e cebb 064e d4bc 9662 d7bb ac50 6fbc
00000220: 55ff 27bb 9526 e53c 7aef 4abc 3566 303c
00000230: a21d a63d 3c23 5fbc 506e 103e 5980 9dbc
00000240: 48d6 bd3d 9cab 8cbc 9f62 bb3d a7fd 123c
00000250: 37d3 59bc 2dff a63d 9a7f 13bd 176b 81bc
00000260: e3e2 bc3d ba68 dcbb b875 49bc 61cd e1bc
00000270: d6a3 19bc a34d 32bc a6aa 95bc 469f abbc
00000280: 9696 41bd 8881 9abc 4b70 2ebd 9f29 6fbc
00000290: 2a9e a9bc 0469 9bbc b076 adbc 746d d1ba
000002a0: 7af7 b8bb fbd7 5bbc 0fdf f13b babb b5bc
000002b0: 9b72 61bc eea9 16bc ec05 c3bc 8e2b e7bc
000002c0: 2b50 fa3c 525e abbb ea7d b2bc 290c 1dbc
000002d0: 799e 0dbd 4bf9 223e 53aa 08bc e5c5 1cbc
000002e0: cc05 39bd 8143 dcbb 0516 2a3d 282d d3bc
000002f0: 31b7 babc 86ed 8fbc 24d0 e3bc f9c0 eb3d
00000300: 4b8b 8dba 253d debb a1dc 34bc 1d4b 023c
00000310: 0000 0000 e278 e2bb 9aa7 2d3a e0c4 ffbc
00000320: ca66 5bbc b671 a9bc be88 11bc 3772 2bbd
00000330: ace2 88bc 7bca 29bd bf5f 9a3d 9082 6bbc
00000340: ea89 dc3d 3d01 0b3e 303a 4ebc f4bd 96bc
00000350: 6263 9abc 453e afbb 53fc 2fbd 5843 8ebc
00000360: c1e7 f8bc d12e 58bc 87bf ab3d dd24 8fbc
00000370: 67d4 3bbc 8945 82bc ac22 e1bc 4600 c2bc
00000380: efbc 34bc 6801 2dbb 0275 efbc d00c 9abb
00000390: 5eb4 32bc d676 b2bc 68cb 06bc 1def a0bc
000003a0: 954a c2bb 92c3 4dbd 0000 0000 db3d 17bc
000003b0: 9b40 14bc 049e 69bc 344b 2cbd b38b 9fbc
000003c0: f72f 04bd 5d69 03bc 9111 4cbd a2d4 4f3b
000003d0: 0da2 943b c52d a43b 86a6 3abd 5605 b1bb
000003e0: 6683 c0bb 86e9 08bc 0000 0000 065b 41bc
000003f0: fda5 52bb 2f90 25bd cc37 11bd 3fe5 063d

dense/bias f4 [512]
-0.011991171 -0.017161572 -0.06210523 -0.021445805 -0.019881386 -0.058052815 -0.07176982 -0.0035181902
-0.07087992 -0.055029612 -0.07512106 0.059373982 -0.024637502 -0.028512005 -0.060241945 -0.0047369865
-0.0764707 -0.06262596 -0.037351914 -0.024531823 -0.07584896 -0.0588539 -0.029744552 -0.03053983
-0.018478038 -0.062098145 -0.07057298 -0.02456022 -0.036677085 -0.016989185 -0.06872827 -0.023955803
-0.0017175013 -0.06801187 -0.017233685 -0.0074556354 -0.04147248 -0.026813917 -0.017294854 -0.032289933
-0.015735129 -0.018305166 -0.026472408 -0.086759225 -0.07466837 -0.02221175 -0.0009893326 -0.024504062
-0.014293693 -0.01515226 -0.052482724 -0.02585855 -0.015870683 -0.014941237 0.033501267 -0.0031463916
-0.012720884 -0.07386866 -0.011446967 -0.07830955 -0.06588508 -0.007687489 -0.05755447 -0.015605625
-0.0042704893 -0.025004456 -0.019307273 0.019285386 -0.02997513 -0.013324265 -0.002835504 -0.0126913795
-0.06917991 -0.008985189 0.0053503504 0.056938265 -0.06683567 -0.06431677 -0.008425241 -0.029704709
-0.030346336 -0.06568887 -0.070515186 0.027168382 -0.0142838545 -0.01948728 -0.07038716 -0.022524996
-0.06283249 -0.06588694 -0.018768402 -0.034063738 -0.065457866 -0.0561945 -0.016294414 -0.01821625
-0.008594268 -0.027750501 -0.007980605 -0.051419478 -0.007927844 -0.017077563 -0.021242684 -0.027440013
-0.022776317 -0.06734549 -0.021780565 -0.007049872 -0.035686083 -0.0042619915 -0.06791476 -0.014792606
-0.014252099 -0.0050848857 -0.029500645 -0.016412785 -0.01664366 -0.02055279 -0.017698605 0.024005605
-0.009711882 -0.06239195 -0.062385447 -0.021438627 -0.032959327 -0.00088241027 0.023526277 -0.006015388
-0.023096656 -0.055823535 -0.06322848 -0.016413499 -0.015036168 -0.056276 -0.049629517 -0.026000721
-0.015361291 -0.023685185 -0.008973497 -0.069045775 -0.038983736 -0.0034435075 -0.013686478 -0.018202838
-0.014381691 -0.018926367 -0.06571298 -0.057923183 -0.028342253 -0.064672925 -0.03297323 -0.034612887
-0.009867544 -0.0042937505 -0.053559683 -0.06460123 -0.020560235 -0.023641303 -0.024623288 -0.027195113
-0.021037195 -0.028664475 -0.0785346 -0.06262709 -0.066819616 -0.01332575 -0.026117794 -0.020002542
0.0012429126 -0.05329548 -0.058125257 -0.012729641 -0.029243786 -0.074325256 0.0010622758 -0.022099013
0.07190901 -0.006511602 -0.013155935 -0.0313297 -0.021315716 -0.07183935 -0.06493556 -0.045804035
-0.081861146 -0.002363466 -0.014913306 -0.017903728 -0.070852116 -0.014678878 -0.020367753 -0.025892528
-0.04650235 -0.010006828 -0.01559632 -0.006336827 -0.0038811727 -0.007215567 0.0010616104 -0.031045489
-0.019919965 -0.0846435 -0.010709666 -0.057969045 -0.061609063 -0.02817059 -0.0646586 -0.02131595
-0.07032857 -0.02505231 -0.027099136 -0.07071077 0.071949854 -0.021470917 -0.020948386 -0.06552486
-0.013303866 0.0013138478 -0.08240547 -0.01031883 -0.026865184 -0.07508322 -0.0040093693 -0.061198656
-0.0076429527 -0.06789914 -0.008560527 -0.02010765 -0.015033621 -0.059941635 -0.07317275 -0.023450112
-0.00926355 -0.01532361 -0.011498759 -0.005962039 -0.05987083 0.033955954 -0.055033144 -0.01940186
-0.06519057 -0.072790764 -0.06936455 -0.020865308 -0.07354991 0.04004131 -0.018201556 -0.0069017857
-0.015281017 -0.06954041 -0.027584046 -0.014186819 -0.006989848 -0.0077965735 -0.025775975 -0.01761046
00000000: 9e76 44bc 6d96 8cbc 0e62 7ebd 1daf afbc
00000010: 4ade a2bc cac8 6dbd 0efc 92bd 7091 66bb
00000020: 7e29 91bd bb66 61bd 12d9 99bd 2232 733d
00000030: 96d4 c9bc 0292 e9bc 42c0 76bd b938 9bbb
00000040: ac9c 9cbd 0a42 80bd 52fe 18bd f6f6 c8bc
00000050: b356 9bbd c910 71bd d9aa f3bc aa2e fabc
00000060: 415f 97bc a05a 7ebd 9188 90bd 8432 c9bc
00000070: b63a 16bd e72c 8bbc 68c1 8cbd f63e c4bc
00000080: c81d e1ba cf49 8bbd a82d 8dbc 674e f4bb
00000090: 0cdf 29bd dca8 dbbc f0ad 8dbc 7342 04bd
000000a0: f5e6 80bc b7f4 95bc aadc d8bc d2ae b1bd
000000b0: bbeb 98bd 6af5 b5bc 7eac 81ba bebc c8bc
000000c0: 1830 6abc 2f41 78bc 20f8 56bd 4fd5 d3bc
000000d0: 3c03 82bc 17cc 74bc a038 093d b133 4ebb
000000e0: 416b 50bc 7448 97bd 0f8c 3bbc c260 a0bd
000000f0: c2ee 86bd 55e7 fbbb 3cbe 6bbd bcae 7fbc
00000100: 76ef 8bbb 25d6 ccbc 492a 9ebc 63fc 9d3c
00000110: 678e f5bc 054e 5abc ddd3 39bb 81ef 4fbc
00000120: 32ae 8dbd 9d36 13bc fe51 af3b 1938 693d
00000130: 24e1 88bd 83b8 83bd 060a 0abc 4a57 f3bc
00000140: e198 f8bc e387 86bd 446a 90bd 3a90 de3c
00000150: d406 6abc caa3 9fbc 2527 90bd 5786 b8bc
00000160: 52ae 80bd bbef 86bd 31c0 99bc 6b86 0bbd
00000170: c60e 86bd 342c 66bd dd7b 85bc 3f3a 95bc
00000180: f9ce 0cbc 0555 e3bc 15c1 02bc 3b9d 52bd
00000190: cae3 01bc 3fe6 8bbc 2305 aebc e1c9 e0bc
000001a0: 6695 babc 6fec 89bd 286d b2bc 9d02 e7bb
000001b0: 922b 12bd 2da8 8bbb e516 8bbd b05c 72bc
000001c0: a381 69bc 1d9f a6bb 56ab f1bc 1b74 86bc
000001d0: 4958 88bc 535e a8bc aafc 90bc 67a7 c43c
000001e0: 961e 1fbc b48e 7fbd e287 7fbd 0fa0 afbc
000001f0: 5c00 07bd 8d51 67ba 2eba c03c bb1c c5bb
00000200: 3335 bdbc 38a7 64bd ef7d 81bd 9a75 86bc
00000210: 425a 76bc aa81 66bd 5248 4bbd 77ff d4bc
00000220: edad 7bbc 6f07 c2bc 9305 13bc df67 8dbd
00000230: 69ad 1fbd 78ac 61bb 403d 60bc 1e1e 95bc
00000240: 2fa1 6bbc 780b 9bbc 8794 86bd dc40 6dbd
00000250: 032e e8bc 3d73 84bd f00e 07bd 3ec6 0dbd
00000260: 7bab 21bc 97b2 8cbb 6661 5bbd a64d 84bd
00000270: f06d a8bc 68ab c1bc c7b6 c9bc 49c8 debc
00000280: 3256 acbc c3d1 eabc c0d6 a0bd a242 80bd
00000290: b9d8 88bd 3f54 5abc fcf4 d5bc 5fdc a3bc
000002a0: 3ae9 a23a 5c4c 5abd c014 6ebd fc8f 50bc
000002b0: aa90 efbc d737 98bd 103c 8b3a fd08 b5bc
000002c0: 0845 933d 475f d5bb fe8b 57bc 9253 00bd
000002d0: 4c9e aebc 8220 93bd effc 84bd 039d 3bbd
000002e0: d1a6 a7bd 61e4 1abb f056 74bc d7aa 92bc
000002f0: ea1a 91bd ad7f 70bc 46da a6bc 911c d4bc
00000300: 4079 3ebd aef3 23bc b587 7fbc 28a5 cfbb
00000310: 465b 7ebb 9070 ecbb bc25 8b3a 1c53 febc
00000320: 322f a3bc 9259 adbd 9877 2fbc f370 6dbd
00000330: c959 7cbd 02c6 e6bc ba6b 84bd ca9e aebc
00000340: 6d08 90bd 813a cdbc 02ff ddbc cfd0 90bd
00000350: 725a 933d c7e3 afbc f39b abbc e631 86bd
00000360: 75f8 59bc 6b35 ac3a 33c4 a8bd 4f10 29bc
00000370: 6014 dcbc 3bc5 99bd 0761 83bb 71ab 7abd
00000380: bc71 fabb b40e 8bbd 7441 0cbc ccb8 a4bc
00000390: 944f 76bc 5c85 75bd 98db 95bd 731a c0bc
000003a0: 25c6 17bc e10f 7bbc 4a65 3cbc 355d c3bb
000003b0: 1e3b 75bd 6615 0b3d 6f6a 61bd a6f0 9ebc
000003c0: a282 85bd 5313 95bd 000f 8ebd b9ed aabc
000003d0: 56a1 96bd 5b02 243d 6e1b 95bc 6028 e2bb
000003e0: 3b5d 7abc 346b 8ebd f0f7 e1bc d56f 68bc
000003f0: 180b e5bb 667a ffbb 2328 d3bc d043 90bc

sequential/batch_normalization/batchnorm/mul f4 [3]
4.3076096 4.315808 4.4292436
00000000: f0d7 8940 191b 8a40 5dbc 8d40

sequential/batch_normalization/batchnorm/sub f4 [3]
-2.153306 -2.1670945 -2.2262933
00000000: c4cf 09c0 adb1 0ac0 977b 0ec0

sequential/dense/MatMul f4 [512, 3]
-0.012895361 -0.05464803 0.06451466 0.10903247 0.1354404 0.11433269 -0.045872696 -0.09445378
0.021656116 0.042831205 -0.053953335 0.033517156 -0.0463363 -6.370164e-05 0.04559156 -0.12334404
-0.060418706 0.013666669 0.0031024904 -0.069948785 -0.1339527 -0.006523304 0.17558856 0.09053066
-0.082276486 0.074063756 -0.105168514 -0.0006552327 -0.13015212 0.02802847 -0.059201416 -0.12964225
-0.03867869 0.10347837 -0.0941004 -0.13011412 0.072958514 0.1614902 0.19096547 -0.041622344
0.004425676 0.034693476 -0.121018216 -0.089617126 0.040728506 0.023186438 -0.03827116 0.01616791
-0.06283377 -0.10664312 0.0036462683 -0.023671458 0.017688297 -0.1385366 -0.058858458 0.067215174
-0.006018352 0.15049264 0.14934595 0.1251966 -0.06257441 -0.034238968 -0.09608538 -0.000855007
-0.06302461 -0.04589428 0.11571573 0.07734294 0.04373718 -0.0054933685 -0.05039707 0.08855301
0.0830619 0.17379302 0.19259764 -0.061136477 -0.066704206 -0.027188187 -0.019473393 -0.08866177
0.058983292 0.01407735 -0.086681135 0.06164976 0.06358188 0.022348925 -0.10626441 0.13247693
0.07272199 0.15501967 -0.08707511 -0.00923134 -0.056512617 0.049450394 0.03342603 -0.071985126
0.010409011 -0.01499618 0.16086043 0.0066161044 -0.13656215 -0.041175246 -0.0154039115 0.08818489
-0.063715816 0.019496541 -0.029008657 0.0090179145 -0.0675609 0.049618334 -0.032527667 -0.016876673
-0.06305206 -0.058914956 0.115811676 0.14088212 0.10164266 -0.0316765 -0.079326615 0.092025444
0.07152766 0.15526205 0.11883308 0.11256461 0.15930662 0.13646139 0.069065094 -0.03412764
-0.05591638 -0.086547144 -0.07346825 -0.06708686 -0.051794942 -0.061064553 -0.09191315 0.13384481
0.12757285 0.12685248 0.0151141975 0.06986034 0.19112769 0.05147482 -0.06531778 0.031636648
0.06837701 0.039316274 0.16796072 0.15831827 0.033791114 0.10632391 -0.01889737 -0.07927509
-0.032138653 0.1269841 0.075743884 -0.011695445 0.107925996 0.039454494 -0.06697306 0.062942386
-0.05484193 -0.004235222 -0.056849714 0.12978984 0.08566176 -0.052801352 0.107808016 0.14820118
0.06391067 0.061702397 0.13260335 -0.13813056 -0.12725988 0.00054730877 0.071299724 0.029552924
0.076859064 -0.06605876 -0.09093615 -0.10566227 -0.09781291 -0.07853936 -0.0047074687 0.020397117
0.04579721 -0.066030025 -0.055750564 -0.10824516 -0.018425282 0.093838304 0.06503482 0.19004852
-0.04800923 0.13560325 0.21844365 -0.045564953 0.047266096 0.0115957195 0.14051089 0.116353825
0.14319192 -0.11733962 0.11230772 0.09748659 -0.010917492 0.06483641 -0.0066791913 0.12496859
0.116438806 0.097473636 -0.01309894 0.124054626 0.19379452 -0.014018072 0.06504215 -0.05242437
0.04950953 -0.12742601 -0.08136938 0.08940531 -0.013651013 0.17354074 -0.11539135 0.032381393
-0.06848401 0.021974154 -0.07549446 -0.044345476 -0.041709203 -0.048726708 -0.073520325 0.06048595
-0.09284128 -0.11248827 -0.014433387 0.0011950732 0.009812411 -0.100142665 0.057555888 0.016548174
0.13167892 0.08416307 0.03353161 -0.08565238 0.08305167 -0.103336506 -0.09173187 0.030304708
-0.09680404 -0.113304734 0.13614269 0.10411048 0.093362994 0.08398787 0.14787671 0.14714183
00000000: 1047 53bc 9dd6 5fbd 4320 843d 6a4c df3d
00000010: e3b0 0a3e 4227 ea3d 02e5 3bbd fc70 c1bd
00000020: 2b68 b13c c66f 2f3d 2cfe 5cbd 4949 093d
00000030: 22cb 3dbd 8f97 85b8 37be 3a3d cd9b fcbd
00000040: 9b79 77bd 2aea 5f3c 2753 4b3b 4f41 8fbd
00000050: e62a 09be 71c1 d5bb 7dcd 333e 2368 b93d
00000060: 9380 a8bd bdae 973d 9762 d7bd ecc3 2bba
00000070: 9946 05be f69b e53c 2f7d 72bd f0c0 04be
00000080: 8c6d 1ebd 78ec d33d b6b7 c0bd a33c 05be
00000090: 466b 953d b05d 253e 748c 433e 317c 2abd
000000a0: 4305 913b bf1a 0e3d 66d8 f7bd 2f89 b7bd
000000b0: efd2 263d 7cf1 bd3c 38c2 1cbd 9172 843c
000000c0: feae 80bd b567 dabd 3bf6 6e3b a5ea c1bc
000000d0: 0ce7 903c 8adc 0dbe 9115 71bd 1ca8 893d
000000e0: 9935 c5bb be1a 1a3e 25ee 183e 8a33 003e
000000f0: 0327 80bd 293e 0cbd 69c8 c4bd 8c22 60ba
00000100: 0c13 81bd a4fb 3bbd 5efc ec3d fa65 9e3d
00000110: c225 333d b701 b4bb 286d 4ebd 485b b53d
00000120: 5c1c aa3d ccf6 313e 5138 453e 3e6a 7abd
00000130: 379c 88bd c3b9 debc aa86 9fbc 4d94 b5bd
00000140: 7798 713d afa4 663c e185 b1bd 7584 7c3d
00000150: 3737 823d 1815 b73c 28a1 d9bd 08a8 073e
00000160: 44ef 943d 7abd 1e3e 6f54 b2bd 0c3f 17bc
00000170: c679 67bd 7f8c 4a3d bce9 083d f06c 93bd
00000180: 8e8a 2a3c 8ab2 75bc 99b8 243e e8cb d83b
00000190: f3d6 0bbe 60a7 28bd b060 7cbc 489a b43d
000001a0: 707d 82bd 36b7 9f3c 90a3 edbc e0bf 133c
000001b0: 5e5d 8abd 983c 4b3d bb3b 05bd f340 8abc
000001c0: 7021 81bd cf50 71bd ac2e ed3d 6743 103e
000001d0: 072a d03d 38bf 01bd fe75 a2bd d677 bc3d
000001e0: 187d 923d 04fd 1e3e c25e f33d 4688 e63d
000001f0: 4621 233e 89bc 0b3e 0072 8d3d 6dc9 0bbd
00000200: 9308 65bd a13f b1bd 8676 96bd d664 89bd
00000210: ef26 54bd d31e 7abd f63c bcbd 9d0e 093e
00000220: 75a2 023e 9ee5 013e 8aa1 773c f012 8f3d
00000230: fab6 433e 43d7 523d 54c5 85bd 6e95 013d
00000240: 3f09 8c3d 1a0a 213d e5fd 2b3e 2f1e 223e
00000250: 8d68 0a3d 5ac0 d93d a8ce 9abc fa5a a2bd
00000260: d2a3 03bd 1f08 023e 9c1f 9b3d 409e 3fbc
00000270: 4e08 dd3d 099b 213d 2c29 89bd f0e7 803d
00000280: eea1 60bd 9ec7 8abb 3fdb 68bd a1e7 043e
00000290: 6f6f af3d 3b46 58bd 73ca dc3d 0dc2 173e
000002a0: 99e3 823d a7bb 7c3d 2cc9 073e 1972 0dbe
000002b0: 6a50 02be 4579 0f3a 9705 923d f918 f23c
000002c0: 4968 9d3d d149 87bd bb3c babd 7665 d8bd
000002d0: 2352 c8bd 3ed9 a0bd 1c41 9abb db17 a73c
000002e0: db95 3b3d c03a 87bd b45a 64bd a3af ddbd
000002f0: 9ef0 96bc 4c2e c03d fa30 853d 149c 423e
00000300: 54a5 44bd 94db 0a3e b1af 5f3e 51a2 3abd
00000310: 189a 413d f9fb 3d3c 16e2 0f3e ea4a ee3d
00000320: e7a0 123e c14f f0bd 9701 e63d 0da7 c73d
00000330: 48df 32bc f4c8 843d 1edd dabb 88ef ff3d
00000340: 7877 ee3d 42a0 c73d f09c 56bc 5a10 fe3d
00000350: 1272 463e 0eac 65bc d234 853d f0ba 56bd
00000360: 81ca 4a3d f77b 02be fda4 a6bd 221a b73d
00000370: 80a8 5fbc aab4 313e 4d52 ecbd 5aa2 043d
00000380: 5841 8cbd 2403 b43c d79c 9abd 9aa3 35bd
00000390: 45d7 2abd a895 47bd d391 96bd 1ec0 773d
000003a0: 9223 bebd 4060 e6bd 037a 6cbc 01a4 9c3a
000003b0: 3cc4 203c 9917 cdbd b9bf 6b3d 0990 873c
000003c0: d7d6 063e b05d ac3d 7158 093d 846a afbd
000003d0: fe16 aa3d 17a2 d3bd ebdd bbbd 9441 f83c
000003e0: 3241 c6bd 500c e8bd fd68 0b3e e037 d53d
000003f0: 1935 bf3d d501 ac3d fe6c 173e 59ac 163e

sequential/dense_1/MatMul f4 [256, 512]
0.042641554 -0.04816664 0.068096206 0.058843326 0.023895016 0.083097495 0.030428829 0.031804845
0.08818052 0.060627587 0.048557773 -0.041553233 -0.052643966 -0.0714341 0.05558953 -0.04602478
0.084760964 -0.0656673 -0.06273262 0.03084158 0.03236372 0.07562894 -0.061558064 0.026076805
0.039439738 0.08158553 -0.048247118 0.086641036 0.019115891 0.04979764 0.0103084445 0.012290295
-0.053873755 -0.038540438 0.028076783 0.061074007 -0.0012387489 0.054235663 -0.069233894 -0.0727287
0.037758343 -0.013551758 -0.049993396 0.035845663 -0.016223125 -0.0023169946 0.053912368 -0.048806954
0.036083084 -0.026513731 0.013125924 0.06997322 0.03538937 0.05579013 0.028035417 -0.0080392
0.024860904 0.074409835 -0.06883289 -0.0010969249 -0.053007584 0.038249508 0.01747274 -0.038532108
-0.057451952 -0.001679224 0.047807973 -0.033256683 -0.01783655 0.04644111 0.058306806 0.0021596262
0.0012014934 0.053414218 0.030872962 0.06844124 0.10109254 -0.048051972 -0.0049542845 -0.050637774
0.000567023 -0.06509461 -0.018394483 0.07240701 -0.022563644 0.03957381 -0.06550281 0.047207657
-0.01948544 -0.046752773 -0.0011637557 0.08443988 0.068743825 -0.061489556 -0.083149366 -0.09146076
0.03062295 -0.026982099 -0.087519795 0.054358758 0.08039056 0.078729406 -0.044061113 0.010610053
-0.07609836 0.08985097 0.007883656 0.039460372 0.05632845 0.00046463826 0.083817035 0.059004977
-0.087553 0.017667491 -0.059091493 0.054450456 -0.028554993 0.06808512 -0.033857323 -0.0160301
0.036768463 -0.082625605 0.035574153 -0.02329534 0.07627272 -0.03805189 0.04116814 0.004523366
0.02546805 0.07424681 -0.03734422 0.057214983 0.04502721 0.0024107387 -0.0061159655 0.008678504
-0.082777254 -0.041630317 -0.03943855 -0.016066981 0.055409923 0.012536801 -0.0074751177 0.026257008
-0.045860905 -0.077742815 0.083034396 -0.017414358 0.024976842 -0.016037444 0.058990743 0.012663306
-0.103359774 0.0048417533 0.047466245 0.02222653 0.048711754 -0.049441148 0.02295943 -0.046920232
-0.010890756 0.010583488 -0.0018674665 0.083296195 -0.04411012 0.016944818 -0.021376824 0.05457322
0.022134462 0.08267501 0.06717856 0.032238588 0.05328578 0.0855416 -0.0011787729 -0.049515683
-0.112954475 0.05356286 -0.01505244 0.036888514 -0.06220314 -0.0026017146 0.05413762 -0.022100799
-0.023417447 0.048054144 0.07460843 -0.054993782 -0.066012375 0.01241532 -0.05144525 0.04947022
-0.0540047 0.035949863 -0.005430085 0.034529865 -0.06279316 0.07417394 0.046428293 0.060193036
-0.06877982 0.080591395 -0.009956068 0.09494957 -0.018604336 0.06750178 0.06558745 0.008889499
0.062625155 0.016190402 -0.082408585 0.026577909 -0.12924159 -0.08275473 -0.039196134 0.023136768
-0.033994615 -0.06877065 0.07582228 0.012967509 -0.08045525 0.060348094 -0.021999177 0.05401372
-0.04542589 0.029473497 0.012478955 0.05667614 0.07497913 -0.04741831 0.0635329 -0.008545477
-0.049896814 0.076616436 0.0521572 0.080346145 0.048465084 -0.06288677 0.073524706 -0.020203248
-0.05442209 -0.039858393 -0.023342825 -0.043568756 0.046148602 -0.042037405 0.04001446 0.04813562
-0.009842452 -0.058207475 0.041480225 -0.035342265 0.05072597 0.03317554 -0.010793195 -0.015223081
00000000: e9a8 2e3d 624a 45bd 0676 8b3d b305 713d
00000010: 7bbf c33c 052f aa3d e145 f93c cc45 023d
00000020: fd97 b43d a254 783d 84e4 463d b933 2abd
00000030: 33a1 57bd 0b4c 92bd d9b1 633d 7b84 3cbd
00000040: 2897 ad3d 947c 86bd f679 80bd 7ba7 fc3c
00000050: d28f 043d 58e3 9a3d 4f24 7cbd 069f d53c
00000060: 908b 213d 5016 a73d c59e 45bd db70 b13d
00000070: ee98 9c3c 9cf8 4b3d c0e4 283c 3c5d 493c
00000080: baaa 5cbd 94dc 1dbd 4801 e63c bd28 7a3d
00000090: 845d a2ba 3726 5e3d 80ca 8dbd c9f2 94bd
000000a0: 7ea8 1a3d 3108 5ebc e0c5 4cbd e7d2 123d
000000b0: 5ce6 84bc b8d8 17bb 37d3 5c3d cde9 47bd
000000c0: dbcb 133d 5333 d9bc 1e0e 573c 1f4e 8f3d
000000d0: 72f4 103d 3184 643d 88aa e53c d9b6 03bc
000000e0: 18a9 cb3c 2f64 983d 42f8 8cbd b1c6 8fba
000000f0: 7b1e 59bd 84ab 1c3d fe22 8f3c d8d3 1dbd
00000100: bd52 6bbd 6819 dcba 4bd2 433d 2938 08bd
00000110: f51d 92bc 0939 3e3d 1ed3 6e3d 8488 0d3b
00000120: 6e7b 9d3a dec8 5a3d 4be9 fc3c ec2a 8c3d
00000130: 9b09 cf3d 25d2 44bd 8d57 a2bb 8e69 4fbd
00000140: 45a4 143a 5350 85bd 07b0 96bc 204a 943d
00000150: 64d7 b8bc 2618 223d 5626 86bd d15c 413d
00000160: ee9f 9fbc d67f 3fbd 2989 98ba d1ee ac3d
00000170: 90c9 8c3d 79dc 7bbd 374a aabd c74f bbbd
00000180: fbdc fa3c 9009 ddbc 943d b3bd 4aa7 5e3d
00000190: cea3 a43d e23c a13d 6d79 34bd cad5 2d3c
000001a0: 75d9 9bbd c903 b83d 732a 013c 33a1 213d
000001b0: a9b8 663d b19a f339 44a8 ab3d 34af 713d
000001c0: fd4e b3bd 6abb 903c ec09 72bd 7107 5f3d
000001d0: 29ec e9bc 3670 8b3d faad 0abd 8e51 83bc
000001e0: 879a 163d 9d37 a9bd 34b6 113d ded5 bebc
000001f0: df34 9c3d 4cdc 1bbd ec9f 283d bf38 943b
00000200: 5fa2 d03c b60e 983d 41f6 18bd 425a 6a3d
00000210: 746e 383d 7cfd 1d3b 7068 c8bb 4930 0e3c
00000220: 1f87 a9bd 8d84 2abd 518a 21bd e79e 83bc
00000230: 84f5 623d 2867 4d3c d5f1 f4bb f018 d73c
00000240: a5d8 3bbd a037 9fbd f00d aa3d 8ea8 8ebc
00000250: 3c9c cc3c f560 83bc 47a0 713d c179 4f3c
00000260: 4aae d3bd 92a7 9e3b f76b 423d 6914 b63c
00000270: fa85 473d cd82 4abd 6a15 bc3c 6e2f 40bd
00000280: 246f 32bc 5e66 2d3c c7c5 f4ba 3297 aa3d
00000290: d0ac 34bd dccf 8a3c 731e afbc 2b88 5f3d
000002a0: 5553 b53c 8451 a93d ea94 893d 9c0c 043d
000002b0: 3142 5a3d 6f30 af3d 0e81 9aba f5d0 4abd
000002c0: ad54 e7bd bb64 5b3d 829e 76bc 6918 173d
000002d0: b8c8 7ebd 8781 2abb 69bf 5d3d bc0c b5bc
000002e0: f2d5 bfbc 6cd4 443d 4ecc 983d 2941 61bd
000002f0: 7f31 87bd a069 4b3c 41b8 52bd 49a1 4a3d
00000300: 0834 5dbd 2a40 133d dbee b1bb 306f 0d3d
00000310: b399 80bd 82e8 973d 982b 3e3d f98c 763d
00000320: 6fdc 8cbd 1a0d a53d c71e 23bc ec74 c23d
00000330: 1f68 98bc 603e 8a3d b752 863d 43a5 113c
00000340: 9e41 803d bca1 843c d5c5 a8bd eab9 d93c
00000350: e857 04be 507b a9bd 208c 20bd 5289 bd3c
00000360: f03d 0bbd a0d7 8cbd b648 9b3d ad75 543c
00000370: b9c5 a4bd 902f 773d 9e37 b4bc 7e3d 5d3d
00000380: 7f10 3abd 6772 f13c 8874 4c3c 3d25 683d
00000390: a88e 993d b439 42bd 891d 823d 5402 0cbc
000003a0: 9a60 4cbd 14e9 9c3d caa2 553d 858c a43d
000003b0: 5383 463d c7ca 80bd 1f94 963d 4881 a5bc
000003c0: b3e9 5ebd 8e42 23bd 7439 bfbc 2775 32bd
000003d0: 5106 3d3d 6a2f 2cbd 34e6 233d db29 453d
000003e0: 3c42 21bc f66a 6ebd 2be7 293d 0dc3 10bd
000003f0: 09c6 4f3d 13e3 073d f1d5 30bc 3b6a 79bc

sequential/dense_2/MatMul f4 [128, 256]
0.05519371 -0.085199006 0.034966737 -0.088616975 -0.024418738 -0.072413765 0.073405035 0.036853794
0.0236428 -0.027133811 -0.007805588 0.008270065 0.12039796 0.032949507 0.11399317 -0.115010396
0.13108018 0.11317398 0.053747408 -0.039445028 0.06807109 0.12914628 0.032497633 0.11303049
0.10628681 -0.03521986 0.052037414 0.027424935 -0.07771355 0.122219205 -0.016619423 -0.022574345
-0.0014886096 -0.054012865 0.13782488 -0.005572526 -0.047570474 -0.01890861 0.116610646 -0.039646912
0.07520053 0.10339765 -0.048478078 0.0676007 0.061929263 -0.03683835 0.10205119 0.12394038
-0.08287865 -0.094385915 0.033520255 0.05025213 0.12770529 0.07712527 0.03168714 0.11871679
0.032620646 -0.074374825 0.017350212 -0.1385194 -0.054880638 0.0038070234 0.10091772 0.12995428
0.0023196829 -0.0066872854 -0.018106686 0.03421905 0.08349246 0.03246251 -0.10492699 -0.01479752
0.10658861 -0.062287774 0.1201052 0.085077696 -0.10839513 -0.0042821933 0.06387287 0.079202674
0.081883065 0.02527718 0.11084941 -0.07421691 0.09873707 -0.07082948 -0.10811885 0.03862988
0.054290626 0.019128969 -0.011276246 0.12219891 0.11733776 -0.06902776 -0.06973818 -0.03303659
-0.010549767 -0.09606755 -0.022200033 -0.048870347 0.0197826 0.11143616 0.11754888 0.07866574
-0.040987883 0.06884076 0.08223224 0.012916746 -0.083428234 0.04114573 -0.054084774 0.11907157
0.06975866 0.0055532297 -0.0065251384 -0.10733525 -0.019531753 -0.11101794 0.088752486 0.009255533
-0.11838545 0.110236004 -0.055261716 -0.022630649 -0.07171644 -0.075271316 0.09215439 -0.14047605
-0.11552432 -0.12999204 -0.054844376 -0.024760608 0.10961389 0.038058452 -0.030351715 0.016153868
-0.11705352 -0.07355318 -0.009361988 0.02825674 0.12395868 0.04388022 0.005086529 0.077812284
-0.12707098 0.04777799 0.05958481 -0.029710282 -0.09300999 -0.10345034 0.05332874 0.04002116
-0.036213543 -0.0046804966 0.08467434 -0.110839844 0.076317966 -0.11035907 0.020856308 0.120593585
-0.07424227 -0.005456634 -0.008452793 -0.032468975 0.0029291455 0.1031088 0.090765275 0.12799321
-0.009031328 0.10828652 0.112810545 -0.07595217 0.08360821 -0.033538 -0.018000688 0.08108061
0.16502392 -0.018144527 0.036684394 -0.07794981 0.07021557 -0.087718636 -0.08179493 -0.04775663
0.00924129 0.016896492 0.09605988 -0.026163762 0.04480129 -0.1216925 -0.07589465 -0.063172124
0.09894951 -0.115414284 -0.10316619 0.18391918 -0.087794155 0.027090227 -0.020168284 -0.04542368
0.011877808 0.1080851 -0.07496064 0.0035782058 -0.003639999 0.030218348 -0.13715827 0.07107912
-0.11611094 0.047301743 0.12333428 0.008373117 -0.10310607 -0.036350675 -0.13433397 -0.009494985
-0.112900004 0.06412141 -0.012462353 0.039382108 -0.061244875 0.054908697 0.040330693 0.051403128
-0.003650337 -0.08166199 -0.053814825 0.09352259 0.004344642 0.06766538 -0.08639731 -0.07898745
-0.050396033 -0.11849551 -0.028154492 0.0026751512 0.025118355 0.117269754 0.03086347 0.15603064
0.063144766 -0.06743518 0.07415719 0.106297515 0.01190699 0.15567088 -0.047031894 0.09641379
0.10435223 0.025107551 0.022729278 -0.12161323 -0.013065569 0.0038253178 -0.14173537 0.109919354
00000000: cd12 623d d17c aebd 4839 0f3d d17c b5bd
00000010: ce09 c8bc ab4d 94bd 6155 963d 01f4 163d
00000020: 8cae c13c ba47 debc 05c6 ffbb 2b7f 073c
00000030: 3593 f63d 10f6 063d 4075 e93d 928a ebbd
00000040: e239 063e c2c7 e73d 3e26 5c3d 1c91 21bd
00000050: db68 8b3d ec3e 043e 3d1c 053d 887c e73d
00000060: e6ac d93d b342 10bd 2f25 553d 42aa e03c
00000070: 4828 9fbd 104e fa3d 7525 88bc d5ed b8bc
00000080: 731d c3ba 983c 5dbd f721 0d3e bc99 b6bb
00000090: 42d9 42bd 3be6 9abc 90d1 ee3d cd64 22bd
000000a0: bc02 9a3d 26c2 d33d f390 46bd 3c72 8a3d
000000b0: 8aa9 7d3d cfe3 16bd 3700 d13d 74d4 fd3d
000000c0: 48bc a9bd 674d c1bd 894c 093d 2dd5 4d3d
000000d0: 2dc5 023e dbf3 9d3d 60ca 013d ca21 f33d
000000e0: 3a9d 053d d451 98bd 0822 8e3c 08d8 0dbe
000000f0: 85ca 60bd 417f 793b f3ad ce3d bc12 053e
00000100: d205 183b 0421 dbbb 7954 94bc 4629 0c3d
00000110: 18fe aa3d 69f7 043d f6e3 d6bd 4c71 72bc
00000120: 214b da3d 7721 7fbd b7f9 f53d 373d ae3d
00000130: 44fe ddbd a451 8cbb c7cf 823d 0335 a23d
00000140: 4fb2 a73d 1712 cf3c 0405 e33d 09ff 97bd
00000150: a936 ca3d 0c0f 91bd 6a6d ddbd 5d3a 1e3d
00000160: d95f 5e3d 5bb4 9c3c 01c0 38bc 6c43 fa3d
00000170: c84e f03d 6d5e 8dbd e4d2 8ebd 6051 07bd
00000180: eed8 2cbc 10bf c4bd d8dc b5bc 462c 48bd
00000190: 1f0f a23c a438 e43d 78bd f03d 811b a13d
000001a0: e9e2 27bd 62fc 8c3d 6069 a83d c2a0 533c
000001b0: 6cdc aabd 6d88 283d ff87 5dbd ccdb f33d
000001c0: a1dd 8e3d def7 b53b d4d0 d5bb 95d2 dbbd
000001d0: 0e01 a0bc 605d e3bd ddc3 b53d 85a4 173c
000001e0: 1274 f2bd 6ac3 e13d 1c5a 62bd e963 b9bc
000001f0: 12e0 92bd d927 9abd 71bb bc3d f4d8 0fbe
00000200: 0498 ecbd a21c 05be 7fa4 60bd c2d6 cabc
00000210: 3f7d e03d 2ee3 1b3d 29a4 f8bc 1e55 843c
00000220: c2b9 efbd 0da3 96bd 0663 19bc ae7a e73c
00000230: 0cde fd3d bfbb 333d e6ac a63b 0c5c 9f3d
00000240: e51e 02be dbb2 433d 340f 743d fa62 f3bc
00000250: 067c bebd c6dd d3bd 3d6f 5a3d 3aed 233d
00000260: a754 14bd da5e 99bb be69 ad3d 0000 e3bd
00000270: 984c 9c3d f003 e2bd d9da aa3c c5f9 f63d
00000280: 550c 98bd 90cd b2bb 957d 0abc 30fe 04bd
00000290: e8f6 3f3b b52a d33d 25e3 b93d a710 033e
000002a0: 23f8 13bc 53c5 dd3d 3709 e73d d08c 9bbd
000002b0: c83a ab3d 245f 09bd 2e76 93bc 970d a63d
000002c0: 08fc 283e d5a3 94bc 6042 163d 26a4 9fbd
000002d0: 2ecd 8f3d d4a5 b3bd 1a84 a7bd 759c 43bd
000002e0: c868 173c 836a 8a3c 0bbb c43d 6355 d6bc
000002f0: 8f81 373d eb39 f9bd a76e 9bbd 6360 81bd
00000300: 0aa6 ca3d 535e ecbd cc48 d3bd 4f55 3c3e
00000310: 6ccd b3bd 53ec dd3c f537 a5bc 2e0e 3abd
00000320: 239b 423c b95b dd3d f784 99bd 5580 6a3b
00000330: 0d8d 6ebb 788c f73c 3873 0cbe ee91 913d
00000340: 93cb edbd 79bf 413d af96 fc3d 662f 093c
00000350: 4629 d3bd 72e4 14bd d88e 09be db90 1bbc
00000360: 1e38 e7bd 1652 833d e62e 4cbc 224f 213d
00000370: e8db 7abd f1e7 603d cc31 253d 168c 523d
00000380: 7e3a 6fbb 673e a7bd ef6c 5cbd c688 bf3d
00000390: 805d 8e3b 2694 8a3d 13f1 b0bd 2cc4 a1bd
000003a0: 126c 4ebd c6ad f2bd 40a4 e6bc 9751 2f3b
000003b0: 02c5 cd3c 202b f03d 63d5 fc3c 7fc6 1f3e
000003c0: 0b52 813d 751b 8abd badf 973d 83b2 d93d
000003d0: 8915 433c 3068 1f3e 84a4 40bd 9874 c53d
000003e0: 9fb6 d53d 5aae cd3c c032 ba3c 5b10 f9bd
000003f0: f810 56bc 2fb2 7a3b 1423 11be 661d e13d

sequential/dense_3/MatMul f4 [120, 128]
0.037923954 -0.010571703 0.022011427 -0.25486666 -0.06981708 -0.16946112 -0.064470306 0.11353869
-0.18206795 0.063348755 -0.017963765 -0.012617051 0.05983832 -0.14555322 -0.19988297 -0.17297341
-0.06464796 -0.005973395 0.102931574 -0.095858306 -0.32763836 0.03303618 -0.11773579 0.051254675
-0.1604838 0.09828571 -0.14302942 -0.0018352608 -0.15975268 -0.19908968 -0.033908654 0.016557753
-0.18695626 -0.03570571 0.060656663 -0.07936974 0.06729561 -0.15093553 -0.13421984 0.025573697
0.04844491 0.034061357 0.10860891 -0.07587426 -0.09331065 -0.018149035 -0.3046155 0.011792942
-0.0085832765 -0.029081307 -0.11507392 0.07303189 -0.06361927 -0.18162921 -0.1588495 -0.30470696
-0.13269831 -0.0035376986 -0.027081396 -0.1281722 -0.05186166 0.059961837 0.12926078 -0.1789128
-0.048790384 -0.10239154 -0.07851987 -0.10214378 0.023669474 -0.09200304 -0.0639504 0.030469235
-0.07710455 -0.064973414 -0.005180909 0.08706056 -0.14322354 0.09290783 0.13227709 0.028584035
-0.13264637 0.109692544 -0.033381283 -0.17716421 -0.13692968 0.02908065 -0.050222736 -0.26423022
0.04818396 -0.15470968 0.017686568 -0.07670631 -0.13969196 0.119194165 -0.029017454 -0.108713716
0.111998424 -0.09932773 -0.023239166 0.11822416 -0.19143195 -0.020127289 0.14770111 -0.051002868
0.08817107 -0.16746534 0.16285393 -0.12753288 -0.06655098 0.037131723 0.018991206 -0.13616958
-0.022522693 0.0033162818 0.13107073 0.073723726 -0.014726293 -0.02383399 -0.30555037 0.1074121
0.061561793 -0.05843473 -0.11158261 -0.1607687 -0.18652211 -0.07585144 -0.059235066 0.12606844
-0.085602485 -0.05817017 0.06284879 0.035778534 -0.056627493 0.0700837 -0.104990624 -0.12272674
0.15705526 0.123510025 0.07725956 0.086653724 -0.06489812 0.068941325 -0.08500864 -0.24941704
0.11120538 -0.066294655 -0.07638994 0.13621548 0.10796845 -0.08239822 0.071821146 -0.016723607
-0.055291772 0.06971234 0.025883483 0.20390213 0.15378276 0.059287224 0.13657649 0.09275784
0.10155274 -0.019980904 -0.12975737 -0.00620882 0.1574459 0.05323955 -0.027389696 -0.0017113491
0.15886518 0.09559196 -0.06459091 0.11923642 0.14545105 -0.13704436 0.1192152 -0.14666273
-0.16249202 0.011402176 0.13463713 -0.06668146 -0.021653533 0.008166284 0.1255288 0.10127276
-0.13604239 -0.07932819 -0.115574986 0.11806349 -0.035045195 0.15042809 -0.13517836 0.0689515
-0.036891844 -0.088836595 -0.06854681 -0.09536379 0.111987084 -0.017517775 -0.11923093 0.13313583
-0.017125512 0.0084404675 -0.10447905 -0.098981105 -0.09353718 -0.112912506 -0.10171255 -0.034135304
-0.14621894 -0.053994063 -0.03196644 -0.15087365 0.0856069 -0.028902743 -0.10811683 0.025703242
0.04647284 -0.12061713 -0.07750695 -0.07603067 -0.1319833 0.15696992 -0.048330672 -0.032449584
-0.010576909 0.06886063 -0.091015875 0.051723238 0.12046057 -0.14861804 0.17559665 0.08431218
-0.044057164 -0.1697351 0.07909988 -0.06874274 0.022275873 -0.054471124 0.16684139 -0.09850549
-0.10916177 0.13168535 0.027353134 -0.10208828 0.09025513 -0.21590154 -0.11095104 0.026991604
-0.11040607 0.107156195 -0.010139165 0.012582393 -0.1737525 -0.10670925 0.122026674 -0.08918692
00000000: 2656 1b3d f034 2dbc 4f51 b43c e27d 82be
00000010: 42fc 8ebd 3787 2dbe 0209 84bd f986 e83d
00000020: 0570 3abe febc 813d bf28 93bc bfb7 4ebc
00000030: 0719 753d e70b 15be 1fae 4cbe f11f 31be
00000040: 2666 84bd 78bc c3bb cacd d23d 5c51 c4bd
00000050: 37c0 a7be f250 073d 761f f1bd 6cf0 513d
00000060: de55 24be 054a c93d 4e76 12be 228d f0ba
00000070: 3596 23be 2ade 4bbe cde3 0abd 20a4 873c
00000080: 7671 3fbe 2740 12bd 1f73 783d 9a8c a2bd
00000090: 48d2 893d d88e 1abe ed70 09be ee7f d13c
000000a0: 2c6e 463d ec83 0b3d 596e de3d f763 9bbd
000000b0: a719 bfbd 49ad 94bc 90f6 9bbe 2f37 413c
000000c0: dfa0 0cbc ec3b eebc e0ab ebbd be91 953d
000000d0: d24a 82bd 02fd 39be 71a9 22be 8d02 9cbe
000000e0: 11e2 07be bcd8 67bb ced9 ddbc 933f 03be
000000f0: e46c 54bd 8b9a 753d f05c 043e eb34 37be
00000100: 6dd8 47bd a8b2 d1bd 07cf a0bd c230 d1bd
00000110: 7ce6 c13c 176c bcbd 6df8 82bd 9e9a f93c
00000120: fee8 9dbd c810 85bd 9dc4 a9bb cf4c b23d
00000130: 31a9 12be 7646 be3d a573 073e 1129 ea3c
00000140: 73d4 07be 7ca6 e03d d0ba 08bd 896a 35be
00000150: 4b37 0cbe 8b3a ee3c 5bb6 4dbd 2f49 87be
00000160: 8b5c 453d 376c 1ebe 6ce3 903c 3318 9dbd
00000170: 690b 0fbe 121c f43d 03b6 edbc 4ca5 debd
00000180: 6e5f e53d 566c cbbd 1060 bebc 821f f23d
00000190: bd06 44be fce1 a4bc f63e 173e 62e8 50bd
000001a0: 0993 b43d 097c 2bbe 2ec3 263e fb97 02be
000001b0: e14b 88bd 6f17 183d 7293 9b3c 0a70 0bbe
000001c0: 8381 b8bc fa55 593b 6837 063e 77fc 963d
000001d0: 8d46 71bc 803f c3bc 1971 9cbe e0fa db3d
000001e0: 3828 7c3d 4159 6fbd 6c85 e4bd 8da0 24be
000001f0: a7ff 3ebe 0058 9bbd 78a0 72bd 1618 013e
00000200: 5b50 afbd d843 6ebd deb6 803d 838c 123d
00000210: 3bf2 67bd 0b88 8f3d 5305 d7bd 2858 fbbd
00000220: 18d3 203e d3f2 fc3d 433a 9e3d 8277 b13d
00000230: 4ee9 84bd 1c31 8d3d 0319 aebd 2e67 7fbe
00000240: a5bf e33d 7ec5 87bd 5472 9cbd 127c 0b3e
00000250: 901e dd3d 66c0 a8bd f716 933d f2ff 88bc
00000260: a079 62bd 58c5 8e3d 9909 d43c b8cb 503e
00000270: 3a79 1d3e 29d7 723d b5da 0b3e d3f7 bd3d
00000280: e2fa cf3d feae a3bc 1edf 04be 5b73 cbbb
00000290: 7f39 213e b711 5a3d 5b60 e0bc 594f e0ba
000002a0: 8ead 223e b8c5 c33d 3d48 84bd 3932 f43d
000002b0: 1ff1 143e 5b55 0cbe 1927 f43d c12e 16be
000002c0: 4f64 26be 31d0 3a3c 51de 093e 4a90 88bd
000002d0: c062 b1bc e1cb 053c 9f8a 003e 1868 cf3d
000002e0: b24e 0bbe d176 a2bd 94b2 ecbd 45cb f13d
000002f0: 8d8b 0fbd d209 1a3e 326c 0abe 7236 8d3d
00000300: e71b 17bd f6ef b5bd 4562 8cbd 174e c3bd
00000310: 7c59 e53d 7081 8fbc 592f f4bd c254 083e
00000320: cd4a 8cbc e349 0a3c 1df9 d5bd 9bb6 cabd
00000330: 6c90 bfbd ac3e e7bd ab4e d0bd 76d1 0bbd
00000340: 6bba 15be e128 5dbd 3eef 02bd 9f7e 1abe
00000350: ac52 af3d 72c5 ecbc 5b6c ddbd 9b8f d23c
00000360: 4e5a 3e3d 1d06 f7bd f7bb 9ebd f8b5 9bbd
00000370: a126 07be b9bc 203e 62f6 45bd dbe9 04bd
00000380: c64a 2dbc cd06 8d3d 8866 babd bfdb 533d
00000390: 08b4 f63d 542f 18be 9ccf 333e ddab ac3d
000003a0: 4975 34bd 0acf 2dbe 1eff a13d fec8 8cbd
000003b0: e47b b63c 1d1d 5fbd 78d8 2a3e 3fbd c9bd
000003c0: 3590 dfbd 86d8 063e ae13 e03c a913 d1bd
000003d0: aed7 b83d 4b15 5dbe 4d3a e3bd 7f1d dd3c
000003e0: 941c e2bd b574 db3d be1e 26bc 6226 4e3c
000003f0: 2dec 31be 618a dabd 1fe9 f93d a2a7 b6bd
